CNN/code/neural_networks/tut1-model.pt (torch, 892006 bytes, 6 tensors)

input_layer.weight f4 [250, 784]
0	0xbdc2305a	-0.094818786
1	0xbd85729d	-0.065160014
2	0xbd0c4ff9	-0.034255955
3	0xbcbb20f2	-0.022842858
4	0x3d56e875	0.052467782
5	0x3e015d68	0.12633288
6	0x3e2f37a3	0.17111067
7	0x3e3d93b6	0.18513379
8	0x3e0973b5	0.13423045
9	0xbc12faa4	-0.00897089
10	0xbdf1746a	-0.11789782
11	0xbe3303b3	-0.1748188
12	0xbe761bca	-0.24034038
13	0xbe8d93bc	-0.27651775
14	0xbe601018	-0.2188114
15	0xbdd2d297	-0.10294073
16	0x3c288417	0.010285399
17	0x3d4b64c7	0.049656656
18	0x3def0970	0.11671722
19	0x3e4579f4	0.19284803
20	0x3e59644e	0.2122967
21	0x3e72cd1c	0.23711056
22	0x3dd101a6	0.102053925
23	0x3d183df2	0.03716845
24	0xbc858a64	-0.016301341
25	0xbd1deb80	-0.03855467
26	0xbd306ce5	-0.0430726
27	0xbd597d24	-0.05309786
28	0xbd59752e	-0.053090267
29	0xbd73897b	-0.059457283
30	0xbc8a6b44	-0.016896851
31	0x3d01c7c0	0.031684637
32	0x3dc92b93	0.09822764
33	0x3d8565e7	0.06513577
34	0x3d9942f3	0.07483473
35	0x3d87d852	0.06633057
36	0x3dca78b7	0.09886306
37	0x3d934a05	0.071918525
38	0xbb004e56	-0.0019577942
39	0xbd77e29b	-0.060518842
40	0xbdded7ed	-0.10881028
41	0xbe0eac01	-0.13932802
42	0xbdb5b9f1	-0.08873356
43	0x3cbb8e2e	0.022894945
44	0x3da8d449	0.08243615
45	0x3ddd5c3f	0.1080861
46	0x3e042a86	0.12906846
47	0x3dad6434	0.08466378
48	0x3dfd2702	0.12360956
49	0x3ddcc292	0.10779299
50	0x3e2549ad	0.16141386
51	0x3dbaf3f9	0.09128565
52	0x3d9a7572	0.07541932
53	0xbb97ba77	-0.0046303826
54	0xbd1efb99	-0.03881416
55	0xbd984a23	-0.074360155
56	0xbd970e94	-0.073758274
57	0xbd1bd2a1	-0.03804267
58	0xbd1afaab	-0.03783671
59	0x3dd5c4c0	0.10437918
60	0x3d849d2c	0.06475291
61	0x3dcaeae7	0.09908085
62	0x3d201b2d	0.039088417
63	0x3d7fa708	0.062415153
64	0x3da4f238	0.08054012
65	0x3d0af117	0.033921327
66	0x3c7daac0	0.0154826045
67	0xbd13acac	-0.036053345
68	0xbcead58b	-0.028666278
69	0xbdbce799	-0.09223861
70	0xbb9232de	-0.0044616302
71	0x3d58aaa3	0.052897107
72	0x3d9f0f0d	0.077665426
73	0x3e00cb8f	0.12577651
74	0x3e1ef55e	0.15523288
75	0x3e340ba8	0.17582572
76	0x3e5c004c	0.21484488
77	0x3e4f17a2	0.20223859
78	0x3e1f5560	0.15559912
79	0x3e1f5b78	0.15562236
80	0x3e02f719	0.12789573
81	0x3ced5a56	0.02897374
82	0xbbe8cbc8	-0.0071043707
83	0xbda3f383	-0.080054305
84	0xbd81e049	-0.06341607
85	0xbd1eab4d	-0.038737584
86	0xbaeb8ed8	-0.0017971648
87	0x3dd029f4	0.10164252
88	0x3dd7a906	0.105302855
89	0x3dbbdc40	0.09172869
90	0x3c087485	0.008328562
91	0x3c273791	0.010206119
92	0x3ba4a92e	0.0050250506
93	0x3c422f60	0.011852115
94	0x3d0a74ac	0.033802673
95	0x3d13fd5e	0.0361303
96	0xbc9640d9	-0.018341469
97	0x3d2334dd	0.039845336
98	0x3d89f440	0.0673604
99	0x3d43f58c	0.047841594
100	0x3d85135c	0.06497833
101	0x3db0677e	0.086134896
102	0x3d68bb60	0.05681932
103	0x3d66294f	0.05619174
104	0x3d5e25d4	0.054235294
105	0x3e3d7ee0	0.1850543
106	0x3e7c2054	0.24621707
107	0x3e0fef61	0.1405616
108	0x3dec07fd	0.11524961
109	0x3d86c199	0.065798946
110	0x3a5d9f66	0.0008454233
111	0xbd41f3af	-0.047351535
112	0xbd018370	-0.03161949
113	0xbd5660f0	-0.05233854
114	0x3dda6147	0.106630854
115	0x3e45cf1e	0.1931729
116	0x3e2f8b43	0.17142968
117	0x3e06fc75	0.13182242
118	0x3d82fdac	0.0639604
119	0x3d6e8957	0.058236446
120	0xbc324033	-0.010879564
121	0xbd2db94f	-0.042413052
122	0xbdf4a17a	-0.11944862
123	0xbdb8e73d	-0.0902848
124	0xbda29972	-0.079394236
125	0xbdca104a	-0.09866388
126	0xbdedf2b7	-0.1161856
127	0xbce8b929	-0.028408604
128	0xbd80d04f	-0.06289732
129	0xbc659de8	-0.014014699
130	0xbd79c786	-0.060981296
131	0x3c9d77ec	0.019222222
132	0x3d2cb422	0.042163976
133	0x3e3dbb9b	0.18528597
134	0x3e87828e	0.26466793
135	0x3e4b21ba	0.19837084
136	0x3de9d385	0.11417297
137	0x3d8008e2	0.06251694
138	0xbd0a00de	-0.033692233
139	0xbd4f3154	-0.050584152
140	0xbd95b876	-0.07310574
141	0xbd035da3	-0.03207172
142	0x3d99c558	0.075083435
143	0x3e1617ea	0.1465756
144	0x3e3a29e0	0.18180037
145	0x3e093fc2	0.13403228
146	0x3ddcd097	0.10781973
147	0x3c1a1a83	0.009405735
148	0xbd9e5ff8	-0.07733148
149	0xbd9fd989	-0.078051634
150	0xbd948f04	-0.072538406
151	0xbe0a64bf	-0.13514994
152	0xbe13195b	-0.14365141
153	0xbdc90215	-0.0981485
154	0xbdda290b	-0.106523596
155	0xbd3b5216	-0.04573258
156	0xbd81914f	-0.063265435
157	0xbd3163b7	-0.043307986
158	0xbd982e48	-0.074307024
159	0xbc7d709e	-0.015468745
160	0x3d981758	0.074263275
161	0x3e397500	0.18111038
162	0x3e716d1c	0.23576778
163	0x3e577ee5	0.210445
164	0x3e2c13e8	0.16804469
165	0x3da51f5f	0.08062624
166	0x3d3cd73e	0.04610371
167	0xbcda9f18	-0.02668719
168	0xbd078909	-0.03308967
169	0x3bc07ac1	0.0058740084
170	0x3e081aec	0.1329152
171	0x3e315bfa	0.17320243
172	0x3e659e17	0.22423588
173	0x3e24e3d1	0.1610253
174	0x3e098815	0.13430817
175	0xbc5b7a6b	-0.013395886
176	0xbd3abe3f	-0.04559159
177	0xbda676fb	-0.081281625
178	0xbdf81cf0	-0.121148944
179	0xbdfc00e9	-0.12304861
180	0xbda23a00	-0.07921219
181	0xbd870501	-0.06592751
182	0xbe120ffc	-0.1426391
183	0xbdf331a1	-0.118747
184	0xbbc30932	-0.005952024
185	0xbb320398	-0.0027162787
186	0xbd1dab91	-0.038493697
187	0x3c89b0a0	0.016807854
188	0x3d6ab8a1	0.057304982
189	0x3e43b08e	0.19110319
190	0x3e47f045	0.1952525
191	0x3e34f951	0.17673232
192	0x3e5ce13e	0.21570298
193	0x3db072ba	0.08615632
194	0x3cc84418	0.024446532
195	0xbdaf4a86	-0.08559136
196	0xbcf8ad02	-0.030355934
197	0x3be37351	0.006941237
198	0x3df4b11e	0.11947845
199	0x3e37984e	0.17929193
200	0x3e391c14	0.18077117
201	0x3e1428df	0.14468716
202	0x3e2ebf0a	0.17065063
203	0x3d27ad4b	0.04093675
204	0xbd815819	-0.063156314
205	0xbd2fcf90	-0.042922556
206	0xbd26cecc	-0.04072456
207	0xbdafbf3a	-0.085813954
208	0xbe07990f	-0.13241981
209	0xbe05c7d1	-0.13064505
210	0xbde5c642	-0.11219455
211	0xbceee233	-0.029160595
212	0x3d539bf5	0.051662404
213	0xbcae9848	-0.021312848
214	0xbd22bfc3	-0.03973366
215	0xbad9272d	-0.0016567461
216	0x3b945e72	0.0045278603
217	0x3e26eedd	0.16302057
218	0x3e237719	0.15963401
219	0x3e55e9f8	0.20890033
220	0x3e376311	0.17908885
221	0x3dd7780a	0.105209425
222	0x3d336582	0.043797977
223	0xbda8dfb1	-0.08245791
224	0xbcd15506	-0.025553238
225	0xbbc45165	-0.0059911483
226	0x3dae0f42	0.08499004
227	0x3e2a48eb	0.16629378
228	0x3de6df1d	0.11273024
229	0x3e0764fb	0.13222115
230	0x3df51cbb	0.119683705
231	0x3d1f3c24	0.038875714
232	0xbd8e1ca3	-0.06939056
233	0xbb63d0f2	-0.0034761992
234	0xbd98bfa3	-0.07458427
235	0xbd7dd350	-0.0619691
236	0xbdbadfa5	-0.09124688
237	0xbd6b6f61	-0.057479266
238	0xbdf2e414	-0.11859909
239	0xbd0195ac	-0.03163688
240	0x3d1e65a8	0.038671166
241	0x3d4b461a	0.0496274
242	0xbd5b911c	-0.053605184
243	0xbd8f54ab	-0.06998571
244	0x3d4b6067	0.049652483
245	0x3dd43a66	0.10362701
246	0x3d88320e	0.06650172
247	0x3deaa762	0.11457707
248	0x3e0e986d	0.13925333
249	0x3d71db18	0.059046835
250	0xbcfdbeb4	-0.030974723
251	0xbd910121	-0.070802934
252	0xbdb05436	-0.08609812
253	0xbc85be09	-0.016325967
254	0x3de631ec	0.112399906
255	0x3dfbb58d	0.122904874

input_layer.bias f4 [250]
0	0x3d1bd4a1	0.038044576
1	0xb753c090	-1.26214145e-05
2	0xbd3c77df	-0.046012755
3	0xbd886a2b	-0.06660875
4	0xbcd56c47	-0.026052607
5	0xbdc17540	-0.09446192
6	0xbdd7ee72	-0.10543527
7	0x3d68634c	0.056735322
8	0xbcafa94d	-0.021443034
9	0xbd7e9ebf	-0.06216311
10	0xbd5f9e1e	-0.05459415
11	0xbdecc481	-0.11560918
12	0xbd46dad0	-0.04854852
13	0xbda90494	-0.08252826
14	0xbd734b5a	-0.059398033
15	0x3c9c7856	0.01910035
16	0xbd860a36	-0.06544916
17	0xbcc41489	-0.023935573
18	0xbc5a67c1	-0.013330401
19	0x3de71cf6	0.11284821
20	0x3b1b3499	0.0023682474
21	0xbd200ac1	-0.039072756
22	0xbd84e9ef	-0.06489932
23	0x3d9b6d92	0.07589258
24	0xbce99ba4	-0.028516598
25	0xbda10086	-0.07861428
26	0xbdb155d4	-0.086589485
27	0xbd6729e9	-0.056436453
28	0xbe02df48	-0.12780488
29	0xbc837c83	-0.016050583
30	0xbcc2f51f	-0.023798523
31	0xbd087309	-0.03331283
32	0x3d91b374	0.07114306
33	0xbdccc6dc	-0.09998867
34	0xbdee91b8	-0.116488874
35	0xbd298017	-0.04138192
36	0xbd7ab46f	-0.06120723
37	0xbd57a0c3	-0.05264355
38	0xbdcfbc68	-0.101433575
39	0xbdd984da	-0.106210425
40	0xbc4c0722	-0.0124528725
41	0xbd92186f	-0.071335666
42	0xbded8eda	-0.115995124
43	0xbd59c861	-0.05316961
44	0xbe0ecccf	-0.13945316
45	0x3d66fef9	0.056395505
46	0xbdd93978	-0.106066644
47	0xbd7f0370	-0.062259138
48	0xbd39935a	-0.04530654
49	0xbcaf2e3d	-0.021384353
50	0xbd117889	-0.035515342
51	0xbdc77792	-0.09739603
52	0xbd999086	-0.07498269
53	0x3dcc9912	0.09990133
54	0xbd00cc8e	-0.03144508
55	0xbd103a5b	-0.035211902
56	0xbdb9be08	-0.09069449
57	0xbd4a28aa	-0.049355187
58	0xbd8e44c3	-0.06946709
59	0xbd816477	-0.0631799
60	0xbd18e346	-0.03732612
61	0xbcb7cdcf	-0.022437004
62	0xbdbb3f1d	-0.09142897
63	0xbddf7ae9	-0.10912115
64	0xbce721f6	-0.028214436
65	0xbd776552	-0.06039936
66	0xbe0ec57f	-0.13942526
67	0xbcb731fd	-0.022362703
68	0xbd61eaa7	-0.055155423
69	0xbd58ebd2	-0.05295927
70	0xbd99af1c	-0.075041026
71	0xbdaf2c08	-0.0855332
72	0x3c977dcc	0.018492602
73	0xbdc2f775	-0.09519855
74	0xbca07f4a	-0.019591946
75	0xbd4aa8e0	-0.049477458
76	0x3ad33eee	0.0016116777
77	0x3ca4eb8a	0.020131845
78	0xbe04a4e3	-0.12953524
79	0xbd284adb	-0.041087013
80	0x3c54d9c5	0.012991373
81	0xbd1da0ce	-0.038483433
82	0xbd931423	-0.07181575
83	0x3cd6d1e2	0.026223127
84	0xbcd1063a	-0.025515664
85	0xbcf6eed5	-0.03014318
86	0xbd229cf4	-0.039700463
87	0xbe02ca66	-0.12772521
88	0xbcf03dc0	-0.02932632
89	0xbd231dcd	-0.039823342
90	0xbdacb590	-0.08433068
91	0xbd69c5e6	-0.057073496
92	0xbd5de346	-0.054171823
93	0xbd598c8e	-0.05311256
94	0xbc9369c8	-0.017994776
95	0xbd52f347	-0.05150154
96	0x3da3777e	0.07981776
97	0xbd2cfcdd	-0.042233337
98	0x3b929cd1	0.0044742604
99	0xbccabe42	-0.024748925
100	0xbdd29f36	-0.10284273
101	0xbd155799	-0.036460493
102	0xbd693a9c	-0.05694066
103	0xbda57ae5	-0.08080081
104	0xbd41dc7f	-0.047329422
105	0x3dfda338	0.12384647
106	0xbd5348c9	-0.051583085
107	0xbd740516	-0.059575163
108	0x3c8cfedd	0.017211372
109	0xbde82a08	-0.11336142
110	0xbd005dbb	-0.03133939
111	0xbdc24761	-0.09486271
112	0xbc762260	-0.015022844
113	0xbd080ad9	-0.03321347
114	0xbd3bed44	-0.04588057
115	0xbd1159d4	-0.035486057
116	0xbd9bc6a6	-0.076062486
117	0xbd2a1025	-0.041519303
118	0xbc57f347	-0.01318056
119	0xbd71ad8b	-0.059003394
120	0xbd0ed505	-0.03487112
121	0xbd571a5e	-0.05251538
122	0xbce601fc	-0.028077118
123	0xbdb01f0b	-0.08599671
124	0xbd8f80a9	-0.07006962
125	0x3c926abf	0.017873166
126	0x3ca1850d	0.019716764
127	0xbd8e79b9	-0.069568105
128	0xbd6c3bec	-0.057674333
129	0xbdd0a0a9	-0.101868935
130	0xbd8cec7c	-0.06881043
131	0xbda0270c	-0.078199476
132	0xbd85ef1d	-0.06539748
133	0x3d4ee1fe	0.05050849
134	0xbd4f3278	-0.05058524
135	0xbd7bd1f1	-0.061479513
136	0xbd1b0f80	-0.03785658
137	0xbd3815de	-0.04494273
138	0xbc87d2fd	-0.0165801
139	0xbca04064	-0.019561954
140	0xbd18e333	-0.03732605
141	0xbdc857d5	-0.09782378
142	0xbd9fea43	-0.07808354
143	0xbd5a8fc1	-0.05335975
144	0xbda8e933	-0.08247604
145	0xbd286613	-0.04111297
146	0xbdb15994	-0.08659664
147	0xbca28d89	-0.01984288
148	0xbc1d7817	-0.009611151
149	0xbdf114a1	-0.11771513
150	0xbc82aaa6	-0.015950512
151	0xbd430af8	-0.047617882
152	0xbdaed6bd	-0.08537052
153	0xbcec9b83	-0.028882748
154	0xbd9fda44	-0.07805303
155	0xbd840905	-0.06447033
156	0xbdc6fb23	-0.09715869
157	0xbd93a62a	-0.07209428
158	0xbc53d42c	-0.012929004
159	0xbcd229b0	-0.025654644
160	0xbd8a3d68	-0.067499936
161	0xbd55d6da	-0.05220685
162	0xbdbf597b	-0.09343239
163	0xbdfb3185	-0.122653045
164	0x3c3e9bb2	0.0116338
165	0xbcec3e37	-0.02883826
166	0xbc03b4b0	-0.008038685
167	0xbdb8bb0d	-0.09020052
168	0x3db94cf1	0.090478785
169	0xbd6c3197	-0.05766448
170	0xbd06f30c	-0.03294663
171	0xbde6c658	-0.112683
172	0xbcc346cc	-0.02383747
173	0x3da5b6f6	0.08091538
174	0xbd8096bc	-0.0627875
175	0xbc9dcfe7	-0.019264175
176	0xbdd8d3cd	-0.10587273
177	0xbd93378d	-0.0718833
178	0x3c21c285	0.009873037
179	0xbd9ee8fc	-0.07759282
180	0xbd2fb7d9	-0.04289994
181	0xbd713f67	-0.058898356
182	0x3c23035a	0.00994953
183	0xbd425627	-0.047445443
184	0xbcc22601	-0.023699762
185	0xbd0065c6	-0.03134706
186	0xbc8d407f	-0.017242668
187	0xbc498f3b	-0.012302215
188	0xbd626fe9	-0.055282507
189	0xbd4c1222	-0.04982198
190	0x3ccd4253	0.02505604
191	0xbcc687d3	-0.024234688
192	0xbdf99b4c	-0.12187824
193	0xbd906685	-0.07050804
194	0xbd16689f	-0.03672087
195	0xbd690f03	-0.056899082
196	0xbd97bf97	-0.0740959
197	0xbc39a5da	-0.011331046
198	0xbd84b8cd	-0.064805605
199	0x3cfababe	0.030606624
200	0xbd0e02e8	-0.03467074
201	0x3c869d47	0.016432418
202	0x3d905239	0.07046933
203	0x3c5ab916	0.013349792
204	0xbc9f5eda	-0.019454408
205	0xbd49fc61	-0.049312953
206	0xbd4c1596	-0.049825273
207	0xbdeed4fb	-0.116617166
208	0xbdb065b7	-0.086131506
209	0x3ceaca4f	0.028660921
210	0xbd20129a	-0.03908024
211	0xbc5ecdd3	-0.013598877
212	0x3cd438d0	0.025905997
213	0xbdeb00f8	-0.11474794
214	0x3ca4da97	0.020123763
215	0xbd30f52f	-0.043202575
216	0xbd9dc8a6	-0.07704286
217	0x3a5003bf	0.00079351285
218	0xbddc3e2c	-0.10754046
219	0xbd1ac193	-0.037782263
220	0x3cf18bcf	0.029485611
221	0xbdbc03cc	-0.09180412
222	0xbc3c9f8a	-0.011512646
223	0xbb721b18	-0.0036942419
224	0xbd282688	-0.04105237
225	0xbccaec87	-0.024770988
226	0xbd714d22	-0.05891145
227	0x3b542652	0.0032371473
228	0xbe09c46e	-0.13453838
229	0x3c4a8bd9	0.012362444
230	0xbdc6aee5	-0.09701327
231	0xbd9ba5a6	-0.07599954
232	0x3cc14a6d	0.02359506
233	0xbd689fa4	-0.05679287
234	0xbcc6c43e	-0.024263497
235	0x3cf70c0b	0.03015711
236	0x3b680e72	0.0035409
237	0xbd167a82	-0.036737926
238	0x3ca94b4f	0.020665793
239	0x3d0308d1	0.03199083
240	0xbc916266	-0.017747115
241	0x3d7e9eae	0.062163047
242	0xbd065a41	-0.032800917
243	0xbc85104c	-0.016243123
244	0xbd800ada	-0.0625207
245	0x3c7eb5b2	0.015546249
246	0xbd8810e3	-0.06643846
247	0xbbacfc7d	-0.0052791224
248	0xbccc3933	-0.024929618
249	0xbdcf91a5	-0.10135201

hidden_layer.weight f4 [100, 250]
0	0x3d49c5cb	0.049260896
1	0x3d9cc5cf	0.076549165
2	0xbbdf1069	-0.006807376
3	0x3d023f1b	0.031798463
4	0x3db16218	0.08661288
5	0x3e0b1de7	0.13585626
6	0x3d94e54a	0.07270296
7	0x3d226872	0.039650388
8	0x3e3e669d	0.18593831
9	0x3b078c49	0.0020682982
10	0xbce98c04	-0.028509147
11	0xbdf6690f	-0.12031757
12	0xbe22ae8d	-0.15886898
13	0x3ddf4853	0.109024666
14	0x3d73b27b	0.059496384
15	0xbd72f3d6	-0.05931457
16	0xbc33f554	-0.010983784
17	0xbcf2ff2c	-0.029662691
18	0x3d3d5afe	0.046229355
19	0x3daabe16	0.08337037
20	0x3d1e775c	0.03868805
21	0x3dcbdfce	0.09954797
22	0x3c8602e7	0.016358806
23	0xbd850039	-0.06494183
24	0x3d756181	0.05990744
25	0xbd9c7026	-0.07638578
26	0xbd985577	-0.07438176
27	0xbdfd5937	-0.12370532
28	0x3c88ae69	0.016684728
29	0xbcec124c	-0.028817318
30	0xbd066c71	-0.03281826
31	0xbe9fc852	-0.3120752
32	0xbd80fbce	-0.06298028
33	0x3ccb06b5	0.024783472
34	0x3c84d113	0.016212976
35	0x3d8cc7fb	0.06874081
36	0xbdc5af48	-0.09652573
37	0x3dbb1c07	0.09136205
38	0xbbfbd4eb	-0.007685294
39	0xbca3e98c	-0.020008825
40	0xbe16fa96	-0.14744028
41	0xbd88e22b	-0.06683763
42	0x3da457ae	0.08024536
43	0x3daba234	0.08380547
44	0x3da99199	0.08279724
45	0xbe7f22f5	-0.24915679
46	0xbe0c6bca	-0.13712993
47	0x3c19248d	0.009347093
48	0x3c1faa91	0.009745256
49	0xbe23c34a	-0.15992466
50	0xbcee0288	-0.029053941
51	0x3ce35e6e	0.027754989
52	0xbd0e360e	-0.03471952
53	0xbc8a9e53	-0.016921198
54	0x3c2b20a5	0.010444795
55	0x3da36e15	0.07979981
56	0xbc873090	-0.016502649
57	0xbe9933e0	-0.2992239
58	0xbd8ca8c6	-0.068681285
59	0xbc89b181	-0.016808273
60	0xbd451f4c	-0.04812555
61	0xbcabafdb	-0.020957878
62	0xbd2d2e74	-0.04228063
63	0xbcaec778	-0.021335348
64	0x3de0defc	0.10980031
65	0xbe474b19	-0.19462241
66	0xbbf54125	-0.0074845725
67	0xbc6ad017	-0.014331839
68	0xbd210d9d	-0.039319623
69	0xbda3bba7	-0.07994776
70	0xbe5001c3	-0.20313172
71	0x3dad1227	0.08450728
72	0xbc7b13e5	-0.015324567
73	0x3d6f1d1f	0.05837738
74	0xbd99cae4	-0.075094014
75	0xbcb3cc20	-0.02194792
76	0xbd972538	-0.07380146
77	0xbe25e816	-0.16201815
78	0xbdbc0aa7	-0.09181719
79	0x3b8047bb	0.003914801
80	0x3ca05ad4	0.01957456
81	0xbe58b144	-0.21161371
82	0x3d7dd039	0.061966155
83	0xbc205985	-0.009786968
84	0xbd525b2b	-0.051356476
85	0x3db59d3f	0.08867883
86	0xbdaba961	-0.08381916
87	0xbd8cc2d9	-0.06873102
88	0xbdcc843c	-0.09986159
89	0xbc31bef3	-0.0108487485
90	0xbd9eb261	-0.07748867
91	0xbc9fc2fa	-0.019502152
92	0x3dc3d004	0.0956116
93	0x3dd13bc1	0.10216475
94	0x3cf88202	0.03033543
95	0x3dae700d	0.08517466
96	0xbe2d4fb2	-0.16924933
97	0x3d8a669d	0.06757853
98	0xbcecee60	-0.02892226
99	0x3d515298	0.05110416
100	0x3e0041ab	0.1252505
101	0xbe03708d	-0.12835903
102	0x3e284490	0.16432405
103	0x3d46f54d	0.04857378
104	0x3dd46502	0.10370828
105	0x3d4248c3	0.047432672
106	0xbd401258	-0.046892494
107	0x3d915309	0.07095916
108	0x3cb744d3	0.022371685
109	0x3e0a3128	0.13495314
110	0xbe571fe3	-0.21008258
111	0xbd891132	-0.06692733
112	0xbd026948	-0.031838685
113	0xbd0bdae3	-0.034144294
114	0xbe36dd4b	-0.17857854
115	0xbd19fa9f	-0.037592527
116	0xbca8c394	-0.020601071
117	0xbdd47f02	-0.10375787
118	0xbcd2eb4d	-0.025746966
119	0x3e0ad407	0.13557445
120	0xbde71327	-0.1128295
121	0xbd878664	-0.0661743
122	0xbd9957bc	-0.07487437
123	0x3dcbb873	0.0994729
124	0x3c85408b	0.016266128
125	0x3cf88533	0.030336952
126	0xbcb0e2c6	-0.021592509
127	0xbe08b6d0	-0.13350987
128	0x3d43065b	0.047613483
129	0x3d95c82b	0.0731357
130	0x3cacf504	0.021112926
131	0x3e00e2ef	0.12586568
132	0xbe35c49c	-0.17750782
133	0xbd513d31	-0.051083747
134	0x3dbde633	0.09272423
135	0x3d927233	0.07150688
136	0xbb705151	-0.0036669562
137	0xbc369055	-0.01114281
138	0xbd7593c2	-0.059955366
139	0xbca43237	-0.020043476
140	0xbe4d7d7f	-0.20067404
141	0xbd76bf75	-0.06024118
142	0xbc282f62	-0.010265203
143	0xbb60189c	-0.0034194356
144	0xbd54d921	-0.051964883
145	0x3c9c2d1c	0.019064479
146	0x3c4abe7c	0.012374517
147	0xbd6aa646	-0.057287477
148	0xbd428e03	-0.047498714
149	0xbc910edb	-0.017707279
150	0x3bec0d65	0.007203745
151	0xbdf5e211	-0.12006009
152	0x3d13af68	0.036055952
153	0xbd7ff0bf	-0.062485453
154	0x3cdc0a49	0.026860373
155	0xbdff6f99	-0.124724574
156	0x3d0fc74a	0.035102166
157	0xbbc87509	-0.0061174673
158	0x3d8e8af3	0.06960096
159	0x3cf23953	0.02956835
160	0xbdfcc93a	-0.123430684
161	0x3d1fe284	0.03903438
162	0xbdb021b7	-0.086001806
163	0x3dbcd0d1	0.09219516
164	0xbbcbb9c1	-0.006217212
165	0xbda98607	-0.08277517
166	0xbe2c8ef2	-0.16851404
167	0xbdb043d0	-0.08606684
168	0xbb102743	-0.0021996058
169	0x3e0fcd43	0.14043145
170	0x3ca8e3a7	0.020616366
171	0xbd73622a	-0.05941979
172	0x3de5dade	0.11223386
173	0xbe04cab4	-0.1296795
174	0xbdc6d1c5	-0.09707979
175	0xbcbc7516	-0.02300505
176	0x3da3ffff	0.08007812
177	0xbd05506c	-0.0325474
178	0xbcac2ff0	-0.021018952
179	0xbd7bca3d	-0.061472166
180	0xbcefe5a3	-0.029284304
181	0xbdafb7c6	-0.08579974
182	0xbdceec92	-0.10103716
183	0xbde1bf29	-0.11022789
184	0x3c7d475e	0.01545891
185	0x3d3823d5	0.044956047
186	0x3c549972	0.012976037
187	0xbdc10a85	-0.094258346
188	0x3d923b97	0.07140272
189	0xbd3f7cc1	-0.046749834
190	0xbcdf2f8f	-0.027244357
191	0x3dc1ac32	0.09456672
192	0x3d2422b4	0.040072158
193	0xbde491e8	-0.11160642
194	0x3ca3b064	0.01998157
195	0x3de9ee65	0.11422423
196	0x3dace95d	0.08442948
197	0xbd3693e8	-0.04457465
198	0x3cbecc41	0.023290755
199	0xbd0be004	-0.034149185
200	0xbdb56a8e	-0.08858214
201	0x3d10e891	0.035378043
202	0xbc8ac63f	-0.016940234
203	0x3d157259	0.036486004
204	0x3d0ec6c8	0.03485754
205	0x3ccd5627	0.025065495
206	0x3cc11fae	0.023574676
207	0x3c23cf3c	0.009998139
208	0x3e1d89c0	0.15384579
209	0x3e107d1b	0.14110224
210	0xbd6038be	-0.054741614
211	0x3c1101c8	0.008850522
212	0x3d9c29d5	0.07625166
213	0xbdb5461f	-0.08851265
214	0xbcb4311d	-0.021996075
215	0x3d9921d5	0.07477156
216	0xbdf51de7	-0.11968594
217	0xbd13dc31	-0.036098663
218	0x3e2d841a	0.16944924
219	0xbdb5073e	-0.08839272
220	0x3dab931f	0.083776705
221	0x3df91b26	0.12163381
222	0xbe161b5c	-0.14658874
223	0x3d45eca8	0.048321396
224	0xbd8112c4	-0.063024074
225	0x3d8524c8	0.06501156
226	0x3cd33b0c	0.025784992
227	0x3c8aafc8	0.016929522
228	0xbd2ada67	-0.04171219
229	0xbda5cb79	-0.0809545
230	0xbdb4cf17	-0.08828562
231	0x3d823760	0.06358218
232	0x3caf88f6	0.021427613
233	0x3d015374	0.031573728
234	0xbe00e963	-0.1258903
235	0xbdfae125	-0.12249974
236	0xbb30730a	-0.0026924037
237	0x3dd9d2af	0.10635888
238	0xbd12e370	-0.035861433
239	0xbe070b01	-0.13187791
240	0x3df898e3	0.12138536
241	0x3c0e5297	0.008686683
242	0xbe134322	-0.14381078
243	0xbe22decd	-0.15905304
244	0xbd83286b	-0.064041935
245	0x3ca94308	0.020661846
246	0xbc4c9c26	-0.012488401
247	0xbbe1f5d8	-0.006895762
248	0xbe3657a7	-0.17806874
249	0x3d62224a	0.05520848
250	0x3e022cdc	0.12712425
251	0x3d87085a	0.0659339
252	0x3c62b6f4	0.013837565
253	0xbd10794a	-0.03527192
254	0xbcb62812	-0.022235904
255	0xbbcc39ba	-0.0062324675

hidden_layer.bias f4 [100]
0	0xbd83ae2c	-0.06429705
1	0x3d9c6908	0.076372206
2	0x3dd1581b	0.10221883
3	0x3da6ec09	0.08150489
4	0x3e801be8	0.2502129
5	0xbd3ad594	-0.04561384
6	0x3cb65830	0.022258848
7	0x3ced1f42	0.028945569
8	0xbc931916	-0.017956298
9	0x3e0ca78f	0.13735794
10	0xbd9417fd	-0.07231138
11	0x3e2778ab	0.16354625
12	0x3e1f6170	0.15564513
13	0x3c9900a9	0.018677073
14	0xbbc005a9	-0.0058600497
15	0x3db04e83	0.08608725
16	0xbdc3abea	-0.095542744
17	0xbc180ae7	-0.009279943
18	0x3dbb6d9e	0.09151767
19	0x3e1091ed	0.14118166
20	0x3dbd1ec3	0.09234383
21	0xbc611c1e	-0.013739614
22	0xbc9a4470	-0.018831462
23	0x3d9e9856	0.077438995
24	0x3dfa11a2	0.122103944
25	0x3defcaa5	0.11708573
26	0x3da88c68	0.08229905
27	0xbd6ada7f	-0.05733728
28	0x3d28134d	0.04103403
29	0x3e87d5b3	0.26530227
30	0x3c15bc49	0.009139129
31	0x3df72371	0.12067307
32	0xbde4175c	-0.11137268
33	0x3cee22f8	0.029069409
34	0xbb3768d9	-0.0027986078
35	0x3c666979	0.014063233
36	0x3bdc7477	0.006727751
37	0x3dcc6f0c	0.09982118
38	0x3e449aab	0.19199626
39	0x3d53dc59	0.05172381
40	0x3db4a2aa	0.08820088
41	0xbd5cd5c1	-0.05391479
42	0x3e4d866b	0.20070808
43	0x3d9fb9b6	0.077990934
44	0x3dd72601	0.105052955
45	0xbddf4772	-0.10902299
46	0xbd5531dc	-0.052049503
47	0xbd139807	-0.036033656
48	0x3d066b9d	0.03281747
49	0x3d1a45d6	0.037664257
50	0xbcd1764c	-0.025569104
51	0x3dc2c627	0.09510451
52	0x3e945ecb	0.2897857
53	0xbc59886b	-0.0132771535
54	0x3c8f86f3	0.017520403
55	0x3cd4e8e0	0.02598995
56	0x3d1360c0	0.03598094
57	0xbd119a98	-0.035547823
58	0xbd906128	-0.07049781
59	0x3d4c37b1	0.0498578
60	0x3d83d3ad	0.06436858
61	0x3c923fb6	0.017852645
62	0xbc35fe25	-0.011107956
63	0xbd4b0d5d	-0.04957329
64	0x3e40a46b	0.1881272
65	0xbc7167bf	-0.014734208
66	0x3e02a4f8	0.12758243
67	0xbdb7dceb	-0.08977684
68	0x3d13c809	0.03607944
69	0xbcc83f3c	-0.024444215
70	0x3bbfc7be	0.0058526685
71	0xbdb95543	-0.090494655
72	0x3ce314b3	0.027719831
73	0x3dc614a6	0.09671907
74	0xbe13d686	-0.14437303
75	0xbe1a75d2	-0.15084007
76	0x3deda4e4	0.11603716
77	0x3db281af	0.087161414
78	0xbdaf63cb	-0.08563956
79	0x3e5bd431	0.21467663
80	0x3d81b7da	0.06333895
81	0x3d49661d	0.04916965
82	0x3da95fa5	0.08270196
83	0x3c84ce31	0.016211601
84	0x3c3eba17	0.011641047
85	0x3dd60961	0.10451008
86	0x3da69aa6	0.081349656
87	0x3d92812c	0.07153544
88	0x3deeb899	0.11656303
89	0xbcc0691d	-0.023487622
90	0xbd90b526	-0.07065801
91	0x3d4322e6	0.047640704
92	0xbd4bcd81	-0.04975653
93	0x3c4de262	0.012566181
94	0xbcaaddbc	-0.020857684
95	0x3d1ad438	0.037800044
96	0xbd04b77f	-0.032401558
97	0x3c43fee8	0.01196263
98	0x3d672881	0.056435112
99	0x3b596306	0.0033170595

output_layer.weight f4 [10, 100]
0	0x3d5cca2c	0.053903744
1	0x3cb583e5	0.022157619
2	0xbb804aba	-0.003915158
3	0xbd98569b	-0.07438394
4	0x3c9a4e2e	0.018836107
5	0x3ce59a57	0.028027697
6	0xbd4a6d80	-0.049420834
7	0x3d980316	0.074224636
8	0x3d484309	0.048892055
9	0xbb1282e6	-0.0022355854
10	0xbe1f5701	-0.15560533
11	0xbe0011ae	-0.12506744
12	0xbd2e99b6	-0.04262706
13	0x3de5105d	0.11184762
14	0x3d5a26e0	0.05325973
15	0xbdd77941	-0.10521174
16	0x3cfd2015	0.030899087
17	0x3d3f2cc3	0.046673547
18	0xbde5a643	-0.112133525
19	0x3d0fe1b6	0.035127364
20	0x3c5518f6	0.013006439
21	0x3bfd3136	0.0077268137
22	0xbe7a32b4	-0.24433404
23	0xbdb3b7c7	-0.08775287
24	0x3d83436f	0.06409346
25	0xbcd4e8e9	-0.025989966
26	0xbd5fc2bb	-0.05462907
27	0xbc8ac89f	-0.016941367
28	0xbdcc859d	-0.09986422
29	0x3d4fb6d3	0.050711464
30	0xbd1ec0bf	-0.038758036
31	0xbcefa003	-0.029251104
32	0xbda6fcef	-0.08153712
33	0xbd2f5ed6	-0.042815052
34	0xbda3b0e6	-0.07992725
35	0xbdbdafa6	-0.09262018
36	0xbdae302b	-0.08505281
37	0x3da01be5	0.078178205
38	0x3daf0149	0.08545167
39	0xbe294130	-0.16528773
40	0xbdc19be6	-0.094535634
41	0xbd5c89af	-0.053842243
42	0xbd9b71cc	-0.075900644
43	0x3da56fba	0.08077951
44	0xbc315e1a	-0.010825658
45	0x3cffb9d8	0.031216547
46	0x3d7811db	0.060563903
47	0xbdd4a30f	-0.103826635
48	0x3dd5ab83	0.10433104
49	0x3dbd094c	0.09230289
50	0xbd95caa4	-0.07314041
51	0x3ddcb5de	0.10776876
52	0xbb6323ba	-0.0034658746
53	0xbe13355b	-0.14375822
54	0xbe2f24fd	-0.17103954
55	0xbe0dd6aa	-0.13851419
56	0x3d5e4249	0.054262433
57	0xbe25dcc4	-0.16197497
58	0x3d6542d1	0.055971924
59	0xbe215dcd	-0.15758438
60	0xbdb46af4	-0.08809462
61	0x3d874262	0.066044584
62	0xbdd26597	-0.10273283
63	0x3d91c6e8	0.071180165
64	0xbc91be70	-0.017791003
65	0x3d76630d	0.060153056
66	0x3dca82ba	0.09888215
67	0xbccea884	-0.025226839
68	0xbcef8a10	-0.029240638
69	0x3d84029d	0.06445811
70	0xbc2c8587	-0.010529882
71	0xbd566fc7	-0.052352693
72	0x3d994aad	0.074849464
73	0x3d7f31f0	0.062303483
74	0xbd246ea5	-0.04014458
75	0xbe0e5429	-0.13899292
76	0x3d53508a	0.05159048
77	0xbdbdf991	-0.09276117
78	0xbe095971	-0.13413025
79	0xbe526d94	-0.20549613
80	0x3cef8909	0.029240148
81	0x3d04e52b	0.032445114
82	0x3db4a673	0.0882081
83	0xbd3c78a5	-0.046013493
84	0x3c816c06	0.01579858
85	0x399ab69f	0.00029509232
86	0x3d00e9d0	0.03147298
87	0xbdf46367	-0.11933022
88	0xbd81ffb0	-0.06347597
89	0x3d8c08f6	0.06837647
90	0xbd7fed41	-0.062482122
91	0x3da1c116	0.07898156
92	0xbe231024	-0.15924126
93	0xbcc56629	-0.024096565
94	0x3e00ede2	0.12590745
95	0xbd270256	-0.040773712
96	0xbd783be2	-0.060603984
97	0xbcc41a3e	-0.023938295
98	0xbddd533f	-0.108068936
99	0xbd8a4b8a	-0.06752689
100	0x3d83e53e	0.06440209
101	0xbdae7229	-0.08517868
102	0x3beef048	0.0072918274
103	0x3dd5350e	0.1041051
104	0xbd095f52	-0.03353817
105	0x3d93e1a0	0.07220769
106	0xbe5b0ee5	-0.213924
107	0x3dada989	0.08479602
108	0x3c703650	0.014661387
109	0xbd3dbb4b	-0.046321195
110	0xbccb70e8	-0.024834111
111	0x3d2689d4	0.040658787
112	0x3dfc7f40	0.123289585
113	0xbe69aa76	-0.22818932
114	0x3d39c8bc	0.04535745
115	0xbe0555d2	-0.13021019
116	0x3e22ae07	0.15886699
117	0xbdcc431b	-0.09973737
118	0xbdd5af91	-0.10433877
119	0xbe72e58d	-0.23720379
120	0x3ca0b888	0.019619241
121	0x3ccf0f77	0.025275929
122	0xbe0a16d1	-0.13485266
123	0x3e08acfb	0.13347237
124	0x3d20d001	0.039260868
125	0xbe84f921	-0.2597132
126	0x3db00b9f	0.085959665
127	0x3cf70b4c	0.030156754
128	0x3da392e3	0.07987001
129	0xbe3afebf	-0.1826124
130	0x3e15231e	0.14564177
131	0x3dd54d7a	0.10415168
132	0x3d019d00	0.031643867
133	0xbd294b9d	-0.041331876
134	0x3d1325eb	0.035924833
135	0xbd54d7c9	-0.0519636
136	0xbe8d9710	-0.27654314
137	0xbe81bb9f	-0.25338456
138	0xbe4e4e5d	-0.2014708
139	0x3d0491b5	0.03236552
140	0xbe97c3fe	-0.29641718
141	0xbe82ee87	-0.25572607
142	0xbe53d221	-0.20685627
143	0xbdc535d8	-0.096294105
144	0xbde55303	-0.11197474
145	0xbd386711	-0.045020167
146	0xbe0108df	-0.1260104
147	0xbe7f178f	-0.2491133
148	0x3d39ae9e	0.045332544
149	0x3da4324f	0.08017408
150	0x3e526853	0.20547609
151	0xbe362ff9	-0.17791738
152	0x3d8fb3f7	0.070167474
153	0xbea76943	-0.32697496
154	0x3e57a6e4	0.21059757
155	0xbdb7318a	-0.08944996
156	0x3dc07908	0.09398085
157	0xbea53fae	-0.32275146
158	0x3e2574b6	0.16157803
159	0x3c3d5ac3	0.011557284
160	0x3e58570b	0.21126954
161	0x3d7877c6	0.0606611
162	0x3da34a92	0.079732075
163	0x3cc80182	0.024414781
164	0xbdbe8843	-0.093033336
165	0x3d326685	0.0435548
166	0xbe525bc2	-0.20542815
167	0xbb468e21	-0.0030297118
168	0xbd88a8dc	-0.06672832
169	0xbd242e8d	-0.040083457
170	0x3d9e9cb1	0.0774473
171	0xbd96b6a5	-0.073590554
172	0xbe1857cb	-0.1487724
173	0xbd9507b5	-0.072768606
174	0xbcb70b0a	-0.022344131
175	0xbde27a2f	-0.11058461
176	0xbb03443c	-0.0020029685
177	0x3d83a94c	0.06428775
178	0xbe7c5651	-0.24642302
179	0xbe96dcc5	-0.2946531
180	0xbe512726	-0.2042509
181	0xbdb565ee	-0.08857332
182	0x3d0ec46e	0.0348553
183	0xbd66f9b1	-0.056390468
184	0xbd97b590	-0.07407677
185	0x3dfad46e	0.12247549
186	0xbe582746	-0.21108732
187	0xbd81d30c	-0.06339082
188	0x3d6cf13a	0.05784724
189	0xbe630e70	-0.22173476
190	0x3e3cf8c3	0.1845427
191	0xbbcb2732	-0.006199741
192	0xbe201a29	-0.1563498
193	0xbe434a7b	-0.19071381
194	0x3d88a3a3	0.06671836
195	0xbde353e0	-0.11099982
196	0xbd90029f	-0.0703175
197	0x3e3bf757	0.18356071
198	0xbd47da93	-0.048792433
199	0xbe177baa	-0.14793268
200	0xbe05acf2	-0.13054255
201	0xbe640c1c	-0.22270244
202	0x3d4c6183	0.049897682
203	0x3da390d7	0.079866104
204	0x3df69410	0.120399594
205	0xbc01b67b	-0.007917042
206	0x3d01c6fb	0.031683903
207	0xbde402af	-0.11133324
208	0x3d644caf	0.055737194
209	0x3d196c7b	0.03745697
210	0xbe1e1b9b	-0.15440218
211	0x3d0d14cd	0.034443665
212	0x3d882127	0.06646948
213	0xbdda6830	-0.106644034
214	0xbe430124	-0.19043404
215	0xbda56bef	-0.08077227
216	0xbe20d1ef	-0.15705083
217	0xbdc15fe6	-0.09442119
218	0x3d7e3942	0.062066324
219	0x3d398ad7	0.045298424
220	0x3d418517	0.047246065
221	0x3d12f85b	0.03588138
222	0xbd574973	-0.05256028
223	0xbdb1abf7	-0.08675378
224	0x3daba98e	0.08381949
225	0x3d726853	0.059181523
226	0xbd605611	-0.05476958
227	0xbb2962b2	-0.002584618
228	0x3d8387a2	0.06422354
229	0x3dd17627	0.10227614
230	0x3ce86c43	0.028371936
231	0x3da2b14d	0.07943974
232	0xbe19a84d	-0.15005608
233	0xbc93b374	-0.018029906
234	0xbd336a5a	-0.043802597
235	0x3b13d669	0.0022558218
236	0xbe0a5342	-0.13508323
237	0x3dc14ab8	0.094380796
238	0x3dae2ccc	0.08504638
239	0xbce48732	-0.027896497
240	0xbe8a7cc0	-0.27048302
241	0xbe14188d	-0.1446249
242	0x3daa1061	0.08303905
243	0xbda44b2b	-0.0802215
244	0xbd580ddd	-0.052747596
245	0xbbc86fdf	-0.0061168517
246	0xbd05e49e	-0.03268873
247	0xbd09fd2f	-0.03368872
248	0xbb6f805a	-0.003654501
249	0xbc53b180	-0.012920737
250	0xbd18deb4	-0.03732176
251	0x3da61b2d	0.08110652
252	0x3d8203e3	0.063483976
253	0xbd267213	-0.040636133
254	0xbbe65c97	-0.0070300805
255	0x3d9bd372	0.07608689

output_layer.bias f4 [10]
0	0xbe20b184	-0.15692717
1	0xbe084cb1	-0.13310505
2	0x3dd8e692	0.10590853
3	0x3ced9715	0.029002706
4	0xbe1c2422	-0.15248159
5	0x3d3d0339	0.04614565
6	0x3e31616d	0.17322321
7	0x3c9c54d3	0.019083416
8	0x3e454a3d	0.19266601
9	0xbdcec8e2	-0.10096909
